assets/knn.tflite (tflite, 6024 bytes, 3 tensors)

map/TensorArrayV2_1 f4 [18]
00000000: 0000 0000 0000 0000 0000 0000 0000 0000
00000010: 0000 0000 0000 0000 0000 0000 0000 0000
00000020: 0000 0000 0000 0000 0000 0000 0000 0000
00000030: 0000 0000 0000 0000 0000 0000 0000 0000
00000040: 0000 0000 0000 0000
0.0 0.0 0.0 0.0 0.0 0.0 0.0 0.0
0.0 0.0 0.0 0.0 0.0 0.0 0.0 0.0
0.0 0.0

Const f4 [18, 3]
00000000: 9016 bc42 d57d 0043 7574 4742 4a5b 9342
00000010: b384 c642 dfd3 4741 0a74 9a42 276a e842
00000020: e3d7 8b41 68f8 a442 3603 e242 902d b441
00000030: c1a8 0743 d7ea 2343 0b69 1342 3ebd 2142
00000040: 8746 9542 0362 ce41 4f4b c442 a59e 0443
00000050: ef68 ed41 9133 0c43 e786 2043 d497 6042
00000060: 806f 0343 8818 1943 3bae 4b42 2201 9042
00000070: 5700 c742 12ae 1942 6de4 bb42 92f9 fe42
00000080: 02e0 0442 1f0e d242 85c7 0e43 9027 6642
00000090: 93e6 9442 c454 d742 0a6f 1642 97ae 5542
000000a0: 0af2 b542 e700 8841 fa98 7242 26db b842
000000b0: 5a2e 3b42 2a9b c642 61a2 0643 0587 d341
000000c0: 8439 9042 06ca c742 dc12 1742 753b 5542
000000d0: 438a b342 5a0c 8e41
94.04407 128.49153 49.863728 73.6783 99.25918 12.489226 77.22664 116.20733
17.480413 82.48517 113.00627 22.522247 135.6592 163.91734 36.85258 40.434807
74.63775 25.797857 98.14709 132.6197 29.676237 140.20143 160.52696 56.14827
131.43555 153.09583 50.920147 72.00221 99.50066 38.41999 93.946144 127.48744
33.218758 105.02758 142.77937 57.538635 74.45034 107.66556 37.608437 53.420498
90.97273 17.00044 60.64939 92.428024 46.795265 99.303055 134.6343 26.440928
72.112335 99.89458 37.768417 53.308064 89.77004 17.756031

Const2 f4 [18, 3]
00000000: 9016 bc42 d57d 0043 7574 4742 4a5b 9342
00000010: b384 c642 dfd3 4741 0a74 9a42 276a e842
00000020: e3d7 8b41 68f8 a442 3603 e242 902d b441
00000030: c1a8 0743 d7ea 2343 0b69 1342 3ebd 2142
00000040: 8746 9542 0362 ce41 4f4b c442 a59e 0443
00000050: ef68 ed41 9133 0c43 e786 2043 d497 6042
00000060: 806f 0343 8818 1943 3bae 4b42 2201 9042
00000070: 5700 c742 12ae 1942 6de4 bb42 92f9 fe42
00000080: 02e0 0442 1f0e d242 85c7 0e43 9027 6642
00000090: 93e6 9442 c454 d742 0a6f 1642 97ae 5542
000000a0: 0af2 b542 e700 8841 fa98 7242 26db b842
000000b0: 5a2e 3b42 2a9b c642 61a2 0643 0587 d341
000000c0: 8439 9042 06ca c742 dc12 1742 753b 5542
000000d0: 438a b342 5a0c 8e41
94.04407 128.49153 49.863728 73.6783 99.25918 12.489226 77.22664 116.20733
17.480413 82.48517 113.00627 22.522247 135.6592 163.91734 36.85258 40.434807
74.63775 25.797857 98.14709 132.6197 29.676237 140.20143 160.52696 56.14827
131.43555 153.09583 50.920147 72.00221 99.50066 38.41999 93.946144 127.48744
33.218758 105.02758 142.77937 57.538635 74.45034 107.66556 37.608437 53.420498
90.97273 17.00044 60.64939 92.428024 46.795265 99.303055 134.6343 26.440928
72.112335 99.89458 37.768417 53.308064 89.77004 17.756031
